model/pretrain_model.pth (torch, 382453 bytes, 166 tensors)

upper.weight f4 [32, 8, 3, 3]
0.02208551 -0.03423003 0.027162712 -0.015003668 0.042121504 0.017540382 -0.0318341 -0.10668212
0.012134134 -0.10347914 0.013882097 0.0076854103 -0.03187474 0.091031194 -0.00030003898 0.030747594
0.03999561 -0.08298661 -0.03841249 0.115884036 -0.109598994 -0.011485167 -0.013051864 0.07788856
-0.02989765 0.021416385 -0.01818782 -0.06624866 -0.069411665 -0.058351763 -0.11382914 -0.08260139
0.018841596 0.05855478 -0.0048077735 -0.06829791 0.058933575 -0.042116113 -0.021773482 -0.0681649
-0.039875686 -0.116060466 0.031166997 0.03695585 0.010097112 0.05616037 0.04618616 0.0027538561
0.0048815366 0.0021503975 0.05311714 0.05979265 0.073557034 0.053372037 -0.01746829 0.0008241774
-0.016845735 0.066525675 0.011692645 0.10306494 0.04012759 -0.10893338 0.021381194 0.10930838
0.099127956 -0.0062898984 0.030424839 -0.118471034 -0.048211705 0.038501997 -0.118820965 0.08753069
-0.050223548 -0.39033422 0.34890345 -0.27866727 -1.8732791 -0.116932705 0.571847 0.20978576
0.59611195 0.015936907 0.019561986 -0.033362363 -0.16309166 -0.72858876 -0.107756056 0.17301384
0.40597272 -0.13254629 -0.17367132 0.12005122 0.035316598 0.25512257 0.17561913 0.39019486
-0.34471875 0.30716318 -0.28519154 0.21307038 0.22680736 -0.05796638 0.6362245 -0.1196927
0.31797686 -0.023176588 -0.045214 -0.11548 -0.18944605 0.33107924 -0.18966854 0.09141444
-0.06602043 0.13238533 -0.22010712 0.29174328 -0.073914014 -0.056444395 -0.13716607 -0.03616758
0.09627121 -0.88818884 -0.014648551 -0.04330922 -0.051624294 -0.110485435 0.027478248 0.0017410914
-0.08937083 0.06468693 -0.17916903 0.12515838 0.121262625 0.031258453 0.116726175 0.046729356
0.3913491 -0.11000802 0.08751135 0.042771716 0.110453285 -0.3956228 0.28858304 -0.28231314
0.02023265 -0.5341338 -0.42387304 0.17877111 -0.119698584 -0.25910366 -0.22476056 -0.23879233
-0.30690965 -0.0017385253 0.17626677 0.40997654 0.031659793 0.29901394 0.45851848 -0.019860342
0.3344864 0.26056582 -0.097328976 -0.26554585 0.03574447 -0.035866037 -0.273967 -0.18229412
0.024874471 -0.121985346 -0.23214182 -0.63904387 -0.6577326 -0.41455716 -0.59378654 -0.48937857
-0.30348662 -0.48783222 -0.39487013 -0.07001743 0.33401638 0.724661 0.3680169 0.7156011
0.7615052 0.33899906 0.39265707 0.5698342 -0.04474473 0.12590724 0.09224558 0.041021936
0.4834053 0.57632947 0.5315009 -0.15031296 0.32822838 -0.032620713 0.12586355 -0.8144174
0.02446591 -0.9983525 -1.76974 -0.67920786 0.2168321 -0.76077527 0.3097004 0.15490983
0.3820852 -0.13374975 0.5586966 1.0348401 0.46539453 -0.08516659 0.7412201 -0.13594466
0.1641075 0.5611549 0.22087133 0.21332984 0.25406414 0.049971372 0.030207388 0.045599032
-0.09539783 -0.2623023 -0.26496726 -0.2006588 -0.18316638 -0.84964484 -0.31357017 -0.12201954
-0.35998705 -0.09500021 -0.001290156 -0.06738523 -0.027730498 0.097698756 -0.27931613 0.016369004
-0.038718138 0.006935981 0.052518368 0.06678802 0.4706555 0.25944772 0.599708 0.7390352
0.48680145 0.21343221 0.3668921 0.2107284 0.11617983 -0.4551972 -0.034475934 -0.32171726
00000000: acec b43c ca34 0cbd 5684 de3c f2d1 75bc
00000010: 9987 2c3d d9b0 8f3c 7964 02bd 287c dabd
00000020: 3fce 463c dfec d3bd bc71 633c e5d5 fb3b
00000030: 168f 02bd 906e ba3d 8d4e 9db9 61e2 fb3c
00000040: 70d2 233d e2f4 a9bd 6a56 1dbd 9c54 ed3d
00000050: 7075 e0bd 482c 3cbc 7cd7 55bc 0a84 9f3d
00000060: ebeb f4bc 6a71 af3c a0fe 94bc 61ad 87bd
00000070: b427 8ebd 4202 6fbd 411f e9bd eb2a a9bd
00000080: b159 9a3c 23d7 6f3d 878a 9dbb c6df 8bbd
00000090: 5564 713d f281 2cbd 4d5e b2bc 0a9a 8bbd
000000a0: b054 23bd 1cb1 edbd ee51 ff3c 045f 173d
000000b0: 5b6e 253c 6b08 663d b32d 3d3d 0a7a 343b
000000c0: 4cf5 9f3b afed 0c3b 5c91 593d 23e9 743d
000000d0: 12a5 963d a39c 5a3d a919 8fbc 9c0d 583a
000000e0: 1100 8abc 9d3e 883d 8292 3f3c b613 d33d
000000f0: d45c 243d 7718 dfbd 9d27 af3c 12dd df3d
00000100: 9903 cb3d 7e1b cebb 833d f93c f1a0 f2bd
00000110: a379 45bd 45b4 1d3d 6858 f3bd 4a43 b33d
00000120: 35b7 4dbd e3d9 c7be 79a3 b23e 7aad 8ebe
00000130: 9cc7 efbf 6a7a efbd 9164 123f 14d2 563e
00000140: cb9a 183f 1e8e 823c 7540 a03c f9a6 08bd
00000150: 8001 27be cb84 3abf 35af dcbd 8a2a 313e
00000160: a8db cf3e 37ba 07be e5d6 31be 6add f53d
00000170: 23a8 103d 6d9f 823e 80d5 333e 9fc7 c73e
00000180: fa7e b0be 7e44 9d3e a004 92be 1f2f 5a3e
00000190: 3040 683e 286e 6dbd 9cdf 223f 7221 f5bd
000001a0: ddcd a23e d4dc bdbc 5132 39bd c780 ecbd
000001b0: 25fe 41be 3883 a93e 7838 42be 7e37 bb3d
000001c0: b835 87bd 0590 073e c363 61be 605f 953e
000001d0: 3b60 97bd 3d32 67bd 4375 0cbe 7524 14bd
000001e0: d729 c53d 5860 63bf 7a00 70bc 0265 31bd
000001f0: ff73 53bd 3046 e2bd 101a e13c 5535 e43a
00000200: 0e08 b7bd 957a 843d 1678 37be 8529 003e
00000210: 8a58 f83d dd08 003d 220e ef3d 4867 3f3d
00000220: e95e c83e e34b e1bd 2739 b33d 6531 2f3d
00000230: 5535 e23d 128f cabe 28c1 933e 598b 90be
00000240: f1be a53c febc 08bf e305 d9be c60f 373e
00000250: 8824 f5bd 3ca9 84be a227 66be fa85 74be
00000260: 4323 9dbe 3bdf e3ba 477f 343e 72e8 d13e
00000270: b3ad 013d 5b18 993e efc2 ea3e 28b2 a2bc
00000280: cd41 ab3e e268 853e 6a54 c7bd a0f5 87be
00000290: cb68 123d 44e8 12bd 6745 8cbe 4fab 3abe
000002a0: 8cc5 cb3c 74d3 f9bd 96b6 6dbe 6198 23bf
000002b0: 2a61 28bf d640 d4be 6502 18bf d48f fabe
000002c0: 9962 9bbe 25c5 f9be 6b2c cabe 4c65 8fbd
000002d0: 3204 ab3e 6283 393f b66c bc3e a231 373f
000002e0: 01f2 423f 4991 ad3e 590a c93e a7e0 113f
000002f0: 4046 37bd d4ed 003e 40eb bc3d 9e06 283d
00000300: e680 f73e 548a 133f 7110 083f a4eb 19be
00000310: 8d0d a83e 4c9d 05bd 60e2 003e a97d 50bf
00000320: bb6c c83c 0894 7fbf d786 e2bf 91e0 2dbf
00000330: 3c09 5e3e 2bc2 42bf 0d91 9e3e afa0 1e3e
00000340: aca0 c33e b2f5 08be be06 0f3f a475 843f
00000350: 3148 ee3e d26b aebd 9ac0 3d3f 1435 0bbe
00000360: cc0b 283e d9a7 0f3f 182c 623e 2373 5a3e
00000370: b214 823e c8ae 4c3d 7c75 f73c 0dc6 3a3d
00000380: f05f c3bd 7d4c 86be caa9 87be 8079 4dbe
00000390: f88f 3bbe 5382 59bf 458c a0be 61e5 f9bd
000003a0: 3950 b8be 788f c2bd 741a a9ba 4401 8abd
000003b0: 122b e3bc 4916 c83d 8602 8fbe 4a18 863c
000003c0: e996 1ebd 3a47 e33b 801d 573d 28c8 883d
000003d0: c2f9 f03e 55d6 843e 7786 193f 6931 3d3f
000003e0: 0a3e f93e f98d 5a3e 48d9 bb3e 30c9 573e
000003f0: b1ef ed3d 9b0f e9be a336 0dbd 20b8 a4be

upper.bias f4 [32]
-0.13003403 0.060924187 -0.05517453 0.026931724 0.1854789 0.2865668 0.037250835 0.218887
0.0944588 -0.03874094 0.6503436 -0.07817183 0.26626316 0.25809032 -0.071065135 0.21035866
0.2963961 0.15208717 0.09045101 0.010528061 0.0122182835 -0.014924283 0.09790163 -0.31425992
-0.05899887 0.034758825 0.24715078 0.06257033 0.16607814 0.11488627 0.009220721 0.5692979
00000000: a427 05be a48b 793d b0fe 61bd eb9f dc3c
00000010: 2eee 3d3e e2b8 923e 5594 183d ea23 603e
00000020: 9e73 c13d d2ae 1ebd eb7c 263f 8d18 a0bd
00000030: a553 883e 6a24 843e 998a 91bd 4368 573e
00000040: 3bc1 973e bdbc 1b3e 613e b93d e37d 2c3c
00000050: 322f 483c fb84 74bc a680 c83d ade6 a0be
00000060: cda8 71bd 455f 0e3d 1815 7d3e e024 803d
00000070: 6310 2a3e 7e49 eb3d 8212 173c 82bd 113f

lower.weight f4 [32, 8, 3, 3]
-0.026481891 0.500923 -0.0342412 -0.14306922 0.1355684 -0.19705753 -0.34903416 0.2933599
-0.10856726 -0.16404839 0.034605756 -0.16366649 -0.043039195 0.21545823 0.0019487464 -0.07650436
0.119709365 0.011214872 0.090234034 0.22064617 -0.122578844 0.0335055 0.30008456 -0.30639234
0.04409704 0.010653517 -0.14060181 0.396383 0.51004416 -0.54582465 0.2091494 0.20273389
-0.636143 -0.028532647 0.31923988 -0.30037993 0.33322003 0.5349366 -0.6316478 0.38898456
0.15012798 -0.7240609 -0.025944605 0.102910854 -0.5270663 0.14702821 -0.059304148 0.11392138
-0.30894274 -0.31446216 0.21886809 0.21512726 -0.057509568 0.14354232 -0.3803748 -0.7483491
0.9852144 -0.5453306 -0.7047625 1.5310316 0.08737397 -0.3553052 0.4666166 -0.30269969
-0.8580994 0.9523802 -0.6568893 -0.84976345 1.2796121 0.29044724 -0.34446022 0.30549806
0.00659877 0.037882123 0.03971985 -0.026044685 -0.025299072 0.0044502127 -0.0440726 -0.066875085
-0.028384974 -0.07451141 -0.09282031 0.03924602 0.056760475 0.0022084736 -0.08671689 -0.036962964
-0.028163433 -0.032321878 0.05763813 0.100841545 -0.04391532 0.044216778 0.027563514 -0.12045089
0.004660965 0.07561393 0.082574196 -0.12022466 -0.056725636 -0.0205004 -0.04784617 0.009999417
0.008699969 -0.03429339 0.07072088 0.077098444 0.024992092 0.033951003 -0.0910817 0.07515206
-0.030534845 -0.08044092 0.059946943 0.0757648 0.009140113 0.05456356 0.047375932 0.05008373
-0.024686245 0.010216774 -0.017106108 -0.11141483 0.07824224 -0.029590985 0.0725649 -0.1047614
-0.048789486 0.013873331 -0.09889968 0.020175876 0.028154803 -0.10843998 -0.037779294 -0.03374196
-0.07381244 0.015196429 0.10467703 -0.11769146 -0.051231377 0.08723972 -0.10160709 0.06181427
-0.65816057 -0.77295005 -0.8870106 0.6153941 0.855991 0.17735662 0.20708853 0.5957577
0.21033828 -0.32891893 -0.44924247 -0.99902946 0.10152148 0.6223685 -0.13786711 -0.33387133
0.074893214 -0.2580995 -0.07062716 -0.018710366 -0.9017872 -0.12095097 0.61907274 -0.30128652
-0.702463 -0.069137715 -0.36208147 -0.00054269907 0.22061352 -0.8543792 0.31948853 0.92505884
0.20750812 -0.14803424 0.58285546 0.02872665 -0.029513616 0.12879907 -0.7134713 -0.26840985
0.3251946 -0.06553886 -0.6066507 -0.11821357 -0.18501197 -0.20811893 -0.07962329 -0.7096254
-0.20806022 0.5345046 -0.1772823 -0.5676669 0.013431937 -0.2606127 -0.19201906 -0.2328684
-0.87379014 0.14738254 0.9008801 -0.06983299 -0.3787225 0.31923723 -0.092155196 -0.1263937
-0.2824102 -0.70631033 -0.15365064 0.66927445 0.026055584 -0.38384992 0.15442246 -0.15555395
-0.035757963 0.052899633 0.03783121 -0.024658127 -0.073817834 -0.063875124 -0.024023915 -0.039178755
-0.11544439 -0.10364153 -0.10778583 -0.0380054 -0.059450433 0.11323109 0.04606794 0.10168186
-0.025939714 0.03364354 -0.024208799 -0.064324856 -0.106644355 -0.09778039 -0.064749435 -0.046777748
-0.05393278 -0.053458262 0.05892423 -0.033943303 -0.07385363 0.004508589 -0.03817417 -0.06452878
-0.10958303 -0.026715707 -0.057030376 0.089067794 -0.03719239 0.088661894 -0.06724864 0.06249237
00000000: 8df0 d8bc 7d3c 003f 8040 0cbd bd80 12be
00000010: 71d2 0a3e 73c9 49be 9bb4 b2be 4533 963e
00000020: 8358 debd 4dfc 27be c4be 0d3d 3098 27be
00000030: de49 30bd 15a1 5c3e 146d ff3a 51ae 9cbd
00000040: 2f2a f53d 95be 373c 9fcc b83d 12f1 613e
00000050: 9e0a fbbd 103d 093d afa4 993e 75df 9cbe
00000060: 199f 343d 178c 2e3c ecf9 0fbe b6f2 ca3e
00000070: 4192 023f 2abb 0bbf 432b 563e 7999 4f3e
00000080: 45da 22bf 4cbd e9bc 6973 a33e 66cb 99be
00000090: d19b aa3e 9bf1 083f acb3 21bf fc28 c73e
000000a0: 26bb 193e 0e5c 39bf c889 d4bc edc2 d23d
000000b0: d1ed 06bf 908e 163e e8e8 72bd 9d4f e93d
000000c0: be2d 9ebe 2f01 a1be f51e 603e 524a 5c3e
000000d0: 278f 6bbd c2fc 123e 7cc0 c2be ce93 3fbf
000000e0: 0337 7c3f c99a 0bbf 516b 34bf d8f8 c33f
000000f0: 20f1 b23d 90ea b5be 5fe8 ee3e 74fb 9abe
00000100: 67ac 5bbf 30cf 733f e629 28bf 198a 59bf
00000110: 54ca a33f 80b5 943e 175d b0be 3e6a 9c3e
00000120: 7f3a d83b 492a 1b3d 48b1 223d aa5b d5bc
00000130: 0040 cfbc 17d3 913b 7885 34bd cef5 88bd
00000140: 9b87 e8bc 7099 98bd 9318 bebd 6fc0 203d
00000150: ac7d 683d 0abc 103b a098 b1bd 7a66 17bd
00000160: 00b7 e6bc f263 04bd f615 6c3d 0386 ce3d
00000170: 8de0 33bd a71c 353d e1cc e13c f5ae f6bd
00000180: 02bb 983b 7adb 9a3d a91c a93d 5938 f6bd
00000190: 2459 68bd 74f0 a7bc 58fa 43bd 98d4 233c
000001a0: 518a 0e3c 3a77 0cbd 1cd6 903d cae5 9d3d
000001b0: 37bc cc3c 3510 0b3d 0b89 babd 53e9 993d
000001c0: 3624 fabc 36be a4bd ed8a 753d 932a 9b3d
000001d0: 6ac0 153c 0a7e 5f3d 440d 423d 9924 4d3d
000001e0: cf3a cabc 4264 273c 1c22 8cbc 752d e4bd
000001f0: 783d a03d cb68 f2bc e89c 943d 258d d6bd
00000200: 7cd7 47bd f84c 633c ea8b cabd e147 a53c
00000210: e7a4 e63c c815 debd 76be 1abd 0235 0abd
00000220: fa2a 97bd 71fa 783c e960 d63d 3808 f1bd
00000230: fed7 51bd bdaa b23d 6117 d0bd f630 7d3d
00000240: 367d 28bf 0ee0 45bf 2013 63bf 788a 1d3f
00000250: 3a22 5b3f f99c 353e 040f 543e 9483 183f
00000260: eb62 573e 1068 a8be 1c03 e6be 65c0 7fbf
00000270: 7eea cf3d 8b53 1f3f 092d 0dbe 2ff1 aabe
00000280: 9d61 993d 9e25 84be f9a4 90bd 7b46 99bc
00000290: 87db 66bf 24b5 f7bd 8d7b 1e3f 3a42 9abe
000002a0: 9dd4 33bf 1398 8dbd be62 b9be eb43 0eba
000002b0: 83e8 613e 98b8 5abf 0094 a33e a8d0 6c3f
000002c0: 027d 543e 4a96 17be 0436 153f 2754 eb3c
000002d0: 8ac6 f1bc e7e3 033e 0ea6 36bf 046d 89be
000002e0: e87f a63e 3d39 86bd 764d 1bbf f519 f2bd
000002f0: c773 3dbe 211d 55be 8911 a3bd 03aa 35bf
00000300: bd0d 55be 4bd5 083f 7e89 35be 9e52 11bf
00000310: a111 5c3c 076f 85be a5a0 44be 0e75 6ebe
00000320: b6b0 5fbf 73eb 163e 14a0 663f 9904 8fbd
00000330: eae7 c1be 1073 a33e ddbb bcbd 5a6d 01be
00000340: 1298 90be c1d0 34bf 9856 1dbe 9255 2b3f
00000350: 8572 d53c fa87 c4be ec20 1e3e 8949 1fbe
00000360: f176 12bd 49ad 583d e6f4 1a3d d7ff c9bc
00000370: ce2d 97bd f6d0 82bd cdcd c4bc e779 20bd
00000380: 1c6e ecbd 0342 d4bd d1be dcbd 8dab 1bbd
00000390: 4c82 73bd b4e5 e73d bcb1 3c3d 943e d03d
000003a0: 867f d4bc cfcd 093d 8851 c6bc c0bc 83bd
000003b0: 5b68 dabd 1641 c8bd 5a9b 84bd 069a 3fbd
000003c0: 9ee8 5cbd 0df7 5abd 895a 713d 2208 0bbd
000003d0: 9240 97bd c9bc 933b 855c 1cbd aa27 84bd
000003e0: 116d e0bd e6da dabc af98 69bd 2d69 b63d
000003f0: 0c57 18bd 5e94 b53d a8b9 89bd 00f8 7f3d

lower.bias f4 [32]
0.22541775 -0.055729747 0.20648247 -0.10721511 0.14578135 0.2449863 -0.31249493 0.27930495
0.5080052 0.34220427 0.15513325 0.32467166 -0.037932716 0.11513235 -0.40694752 -0.10162391
0.91545963 -0.041461304 -0.064097464 -0.17355189 0.17275594 0.4477679 -0.07449717 -0.0587862
-0.38721544 0.45059425 0.3078223 -0.09425985 -0.17981198 0.55937696 -0.06275442 0.21042275
00000000: e9d3 663e e044 64bd 2470 533e 9893 dbbd
00000010: b547 153e b0dd 7a3e 56ff 9fbe 0f01 8f3e
00000020: a10c 023f 6635 af3e 40db 1e3e 5d3b a63e
00000030: 565f 1bbd 82ca eb3d 6d5b d0be 3220 d0bd
00000040: 905b 6a3f 54d3 29bd 8845 83bd 96b7 31be
00000050: efe6 303e d641 e53e f991 98bd ccc9 70bd
00000060: 1a41 c6be 4ab4 e63e e29a 9d3e 4f0b c1bd
00000070: a220 38be 5433 0f3f 6485 80bd 1079 573e

blk1.conv1.lowconv.depthwise_conv.w f4 [32, 5, 5]
0.31132683 0.18776305 -0.57004696 0.05343909 -0.05877198 -0.44379732 -0.42280075 -0.14626694
0.7712026 0.42725253 -0.6950822 -0.7208169 0.16152728 0.86944795 0.63512355 -0.75766814
-0.2928457 0.2658253 1.4421315 0.5996133 0.1588625 0.19032486 -0.22756389 -0.35286307
-1.121148 0.027054708 0.08232701 -0.104766235 0.12178051 0.031700533 0.087158024 -0.018032838
0.13445665 -0.10440361 -0.057479776 0.015260404 0.08326234 -0.107594594 0.20052068 0.068809055
-0.17526567 0.018263249 0.016467055 -0.083985895 0.10082067 0.033688925 0.02879339 0.098688655
0.17764299 0.085747644 0.4188395 -0.023212522 0.12854026 -0.09114454 -0.18018241 0.14175695
-0.36184266 0.037738275 1.0037572 -0.074506216 -0.63760173 0.07630442 1.639067 0.20177972
0.99755865 0.12578425 -0.25725743 -0.36072305 0.43171877 -0.03528861 -0.17911763 0.035757344
0.1100101 -1.3977462 0.0005291299 0.14537966 0.13334279 -0.035981774 0.17954965 0.027143432
-0.07894435 0.10676306 -0.17727862 -0.14877675 -0.15031269 0.026205992 0.033564784 0.17389505
-0.19975396 -0.05270679 -0.10985189 0.13896446 0.15886508 0.19466555 0.06738515 0.06927567
-0.03832009 0.02544632 -0.020632816 0.16957854 -0.6695145 0.18029808 1.9909885 0.11563373
-0.07437888 0.040760674 0.22600615 0.4202845 0.27070215 0.07242869 0.16543922 -0.45371166
-0.8637849 -0.18646368 -0.23219763 0.5356622 -0.2534277 -0.64491093 -1.4167182 0.5944186
0.6871105 0.0595597 -1.0239564 -0.08073417 0.33414495 -0.44108963 -0.13880461 -0.023118092
-0.1417792 0.2968312 0.7243752 0.6325972 -0.024496939 -1.1688656 0.7487593 -1.1806751
0.6904064 0.55880713 0.4515305 -0.8457755 0.6450923 -1.4427001 -0.013242439 0.9966285
-0.07283543 0.43604982 -0.4730055 0.4270056 0.25273073 0.23280135 -0.010778366 -0.8398258
0.256643 0.06266245 -0.4240559 0.34651947 -0.34668213 -1.5971189 -0.3605249 0.11295552
-0.50027704 0.40363482 -0.58649606 -0.22513224 -0.304778 -0.058030292 0.29116467 0.79762995
-0.3686553 -0.58425987 -0.13337158 0.6706075 -0.33741328 0.095243245 0.29492226 -0.0055747204
0.12889595 0.30423173 -0.30208746 -0.07655232 -0.047912613 0.02022354 -0.1684049 -0.7299201
-0.8306484 0.3637344 1.3104365 1.2077758 -1.3673439 -0.41811895 -0.6573763 0.0021578185
-0.712929 -1.3100188 -0.5588642 0.07194625 0.0040925792 -0.0855699 0.30783916 0.9622629
-0.044946805 -0.15054525 0.30347976 -0.38305068 0.5306889 0.1990523 0.7992662 -0.523631
-0.9034084 0.09306688 -0.24976109 -1.0810428 -0.46352836 -0.28531155 0.23097591 0.15765925
-0.2152823 -1.0582234 0.44770163 0.2278239 0.035365146 -0.032744292 -0.11988717 0.7782967
-0.19592997 0.25965405 -0.14793506 -0.07634818 0.0054628532 -0.4170628 -0.17304814 -0.2284447
0.37980226 0.06675835 0.88171273 0.27412027 1.6269597 0.9236883 0.7977286 -0.45258912
1.7434835 1.3628993 0.17354976 -0.01164544 -0.15356795 0.62680346 0.8234702 0.7265868
-0.0049296035 -0.12726386 -0.26404047 0.6605424 0.83295435 1.1443313 0.041686684 0.76954925
00000000: 3b66 9f3e f544 403e 99ee 11bf f2e2 5a3d
00000010: e3ba 70bd 6739 e3be 5779 d8be 00c7 15be
00000020: 896d 453f d8c0 da3e e8f0 31bf 7587 38bf
00000030: 6867 253e 2494 5e3f 7597 223f 8af6 41bf
00000040: dfef 95be 411a 883e c497 b83f 4280 193f
00000050: daac 223e 85e4 423e 8206 69be 78aa b4be
00000060: c781 8fbf d6a1 dd3c 109b a83d ae8f d6bd
00000070: 0f68 f93d 6bd8 013d e87f b23d 9ab9 93bc
00000080: 01af 093e 8fd1 d5bd ea6f 6bbd c606 7a3c
00000090: 7285 aa3d 8e5a dcbd 4b55 4d3e c3eb 8c3d
000000a0: d878 33be cf9c 953c ebe5 863c cc00 acbd
000000b0: 117b ce3d 66fd 093d 1ee0 eb3c 471d ca3d
000000c0: 0be8 353e 769c af3d 2272 d63e 3028 bebc
000000d0: 0fa0 033e fda9 babd bd81 38be bc28 113e
000000e0: 7143 b9be 7393 1a3d 1e7b 803f b796 98bd
000000f0: de39 23bf 7e45 9c3d f3cc d13f 589f 4e3e
00000100: 0160 7f3f 96cd 003e 3fb7 83be b1b0 b8be
00000110: 3e0a dd3e ca8a 10bd 9d6a 37be 4b76 123d
00000120: fa4c e13d 59e9 b2bf 4eb5 0a3a 68de 143e
00000130: 038b 083e a061 13bd dddb 373e e75b de3c
00000140: 93ad a1bd 97a6 da3d 8788 35be ef58 18be
00000150: 92eb 19be f3ad d63c 3a7b 093d 8b11 323e
00000160: 4d8c 4cbe 13e3 57bd 07fa e0bd b34c 0e3e
00000170: 87ad 223e 6856 473e 3a01 8a3d 67e0 8d3d
00000180: 87f5 1cbd cd74 d03c 2706 a9bc ffa5 2d3e
00000190: 4d65 2bbf 0fa0 383e b6d8 fe3f 61d1 ec3d
000001a0: f453 98bd aaf4 263d 286e 673e 882f d73e
000001b0: 7999 8a3e 7e55 943d e668 293e e54c e8be
000001c0: 0221 5dbf 56f0 3ebe 37c5 6dbe 2821 093f
000001d0: 47c1 81be e218 25bf 0657 b5bf d12b 183f
000001e0: 79e6 2f3f dff4 733d 0111 83bf f557 a5bd
000001f0: 0c15 ab3e 80d6 e1be cc22 0ebe 2762 bdbc
00000200: 912e 11be 42fa 973e a770 393f e4f1 213f
00000210: cead c8bc 639d 95bf b1ae 3f3f 5d20 97bf
00000220: 79be 303f fc0d 0f3f 012f e73e be84 58bf
00000230: c524 253f 66aa b8bf d1f6 58bc 0c23 7f3f
00000240: be2a 95bd ec41 df3e c72d f2be 7aa0 da3e
00000250: ec65 813e 7a63 6e3e be97 30bc d3fe 56bf
00000260: b666 833e 2c55 803d db1d d9be 006b b13e
00000270: 5280 b1be 646e ccbf b896 b8be 3955 e73d
00000280: 2812 00bf 39a9 ce3e 9b24 16bf 1189 66be
00000290: dd0b 9cbe 2cb1 6dbd 8913 953e 7a31 4c3f
000002a0: 63c0 bcbe 0e92 15bf 8f92 08be efac 2b3f
000002b0: 6fc1 acbe e40e c33d 0d00 973e 25ac b6bb
000002c0: 4dfd 033e 43c4 9b3e 35ab 9abe 76c7 9cbd
000002d0: 0440 44bd d6ab a53c 5672 2cbe 0bdc 3abf
000002e0: 60a5 54bf 653b ba3e 62bc a73f 6698 9a3f
000002f0: 2005 afbf b013 d6be d049 28bf 306a 0d3b
00000300: 8482 36bf b2ae a7bf b911 0fbf 8e58 933d
00000310: 0b1b 863b 463f afbd 189d 9d3e dd56 763f
00000320: 241a 38bd 8928 1abe b361 9b3e 381f c4be
00000330: 3adb 073f 5ed4 4b3e b69c 4c3f ae0c 06bf
00000340: c645 67bf d999 be3d 5fc1 7fbe 9c5f 8abf
00000350: 9753 edbe 5b14 92be f384 6c3e 6d71 213e
00000360: f772 5cbe dd73 87bf 2639 e53e ab4a 693e
00000370: 0bdb 103d e11e 06bd 6887 f5bd 743e 473f
00000380: dea1 48be 60f1 843e 4a7c 17be 6f5c 9cbd
00000390: bc01 b33b 4189 d5be 8833 31be 68ed 69be
000003a0: 7175 c23e 9ab8 883d edb7 613f 7e59 8c3e
000003b0: 3740 d03f d676 6c3f f137 4c3f c3b9 e7be
000003c0: 782a df3f 7c73 ae3f 07b7 313e 84cc 3ebc
000003d0: eb40 1dbe 3176 203f f1ce 523f 9801 3a3f
000003e0: 8388 a1bb 7551 02be 5030 87be 4f19 293f
000003f0: 7f3c 553f 7379 923f a8bf 2a3d 2e01 453f

blk1.conv1.lowconv.depthwise_conv.b f4 [1, 32, 1, 1]
-0.13458788 9.393819e-06 -0.09553643 4.1548494e-05 0.24653247 -0.07782816 -0.24271503 0.031880543
0.20950194 0.0067530572 -0.060996354 0.052599967 1.783837e-05 0.043223325 -0.9561973 3.2409607e-05
-0.05242327 7.9291785e-06 8.212706e-08 0.00048429426 -0.42689842 0.6786112 3.5309855e-05 -6.8495865e-05
0.6185364 -0.11397927 0.11894375 7.245422e-05 0.15792702 -0.17680292 -0.000104916755 -0.3215772
00000000: 68d1 09be 259a 1d37 9ba8 c3bd 5b44 2e38
00000010: 0273 7c3e 5f64 9fbd 4a8a 78be 2c95 023d
00000020: ad87 563e c048 dd3b 50d7 79bd 1073 573d
00000030: 9ca3 9537 f10a 313d 59c9 74bf 8def 0738
00000040: c8b9 56bd 9007 0537 d45d b033 e0e8 fd39
00000050: 6e92 dabe 77b9 2d3f ab19 1438 70a5 8fb8
00000060: 6758 1e3f f76d e9bd c898 f33d 90f2 9738
00000070: 9fb7 213e d30b 35be c106 dcb8 c4a5 a4be

blk1.conv1.lowconv.conv1.weight f4 [32, 32, 1, 1]
-1.7359831 0.02790748 -1.0845419 -0.023138022 1.9204079 0.59013337 -1.6791897 0.2986284
-0.5502005 -0.4622636 -0.54916495 0.7767072 -0.0008658888 0.4367563 -2.0083995 -0.0090366155
1.1882255 -0.022191979 -0.040473066 0.0014082501 -2.6415272 -0.20713107 -0.020017002 0.0027642273
-0.07728776 1.03704 0.95938915 0.018041465 0.23514327 0.49713334 -0.016481804 -1.003301
0.11851659 0.028475618 -0.05033251 -0.021309875 -0.36454606 0.62088054 0.34325972 -0.07801265
0.6562817 0.15671018 -0.26337263 -0.58278334 -0.00048584148 0.1334649 -0.525249 -0.007509762
-0.20755966 -0.021524657 -0.03981494 0.0030821478 0.09058591 -0.15220997 -0.019335594 0.000105205945
0.08687588 0.62183577 -0.79178035 0.021792818 0.4532715 -0.7069276 -0.020267216 -0.26206365
-0.5595211 0.028378712 -0.21277802 -0.021638725 -2.0435832 0.1797575 -0.016860222 -0.3660772
0.057348765 0.11486647 -1.3760169 0.19584629 -0.0005488447 -0.17084707 0.09052575 -0.0077724024
0.14624622 -0.021635087 -0.039927997 0.0031287605 0.35698757 -0.19352858 -0.019448355 0.00055443874
0.15397917 0.013833287 -0.015086482 0.021166958 0.41053373 0.06690917 -0.019649286 0.25552103
-0.27228808 0.028408073 -0.29818776 -0.021509115 0.11762332 0.65910393 0.30403805 0.30497622
0.084148444 -0.37855485 -0.44859144 -0.64958066 -0.0005508779 -0.46855614 -0.28165096 -0.0077172713
0.24956293 -0.021613581 -0.039927367 0.00503929 -0.08361034 0.05714638 -0.01944569 0.00044147196
0.4183802 0.2973369 0.29549995 0.021295065 -0.18561302 -0.12395347 -0.01978506 0.20455478
-0.27956006 0.028452685 -0.7752581 -0.021444568 -0.021548258 0.39002225 -0.07179303 -0.16028601
0.5339343 0.1034248 -0.00042363137 -0.045846332 -0.0004840767 -0.56240094 -0.124068834 -0.007567954
0.79690444 -0.021553751 -0.039808687 -0.0034132227 -0.22577724 -0.085690975 -0.019319445 0.00021636397
0.19090901 0.4631369 -0.25002176 0.021556398 0.10614345 -0.5362389 -0.020136066 -0.8582202
0.7663883 0.028519427 0.7068327 -0.021227904 -0.14949173 -0.21591905 -0.34956878 0.19353417
-0.35759568 -0.28586075 0.3089966 0.12513065 -0.0004321668 -1.227303 -0.07428281 -0.0073720915
-0.0029919695 -0.021453632 -0.03971222 0.003608871 0.6755 -0.37287012 -0.019239038 -0.000119919874
0.28335938 0.5813128 0.07662813 0.022131052 -0.09832479 0.16578065 -0.02064213 0.7741984
-0.21107475 0.028525217 0.9152205 -0.021251805 -0.01181004 0.34770125 -0.13809925 0.1535403
-0.32068932 0.7438156 0.05641342 0.7889046 -0.00040200955 -1.0109776 -0.07127133 -0.0073333825
-0.73272467 -0.021432739 -0.03967401 -0.0034116807 0.09226421 0.3652043 -0.019189306 -0.00016370867
0.074072726 -0.16184439 0.28412446 0.022162495 0.6442283 -0.2894555 -0.020697666 0.2539479
-1.4075565 0.028493045 -0.11919145 -0.02126139 -0.5798751 -0.0046625305 0.11403997 -0.66597766
-0.22430749 -0.267256 -0.9813859 0.009598742 -0.00047302837 0.20481636 0.18337658 -0.007466319
0.09967041 -0.021494355 -0.039784115 0.0071506887 -0.56497097 0.51935214 -0.019281922 2.866153e-05
0.12713026 0.24507773 0.1353649 0.021787105 0.020468218 -0.5398332 -0.020359874 -0.0023970783
00000000: b234 debf 3a9e e43c 45d2 8abf f38b bdbc
00000010: edcf f53f fb12 173f b0ef d6bf d2e5 983e
00000020: f1d9 0cbf d1ad ecbe 1396 0cbf 48d6 463f
00000030: d0fc 62ba 869e df3e 9e89 00c0 500e 14bc
00000040: c617 983f f4cb b5bc 16c7 25bd 0895 b83a
00000050: c80e 29c0 2b1a 54be b2fa a3bc 0a28 353b
00000060: 0c49 9ebd babd 843f 879a 753f b2cb 933c
00000070: 66c9 703e 4388 fe3e d904 87bc 2b6c 80bf
00000080: d3b8 f23d b345 e93c 7629 4ebd 0c92 aebc
00000090: c8a5 babe 07f2 1e3f bdbf af3e 19c5 9fbd
000000a0: 1402 283f a278 203e c7d8 86be 4a31 15bf
000000b0: 8ab8 feb9 06ab 083e b876 06bf 7314 f6bb
000000c0: 858a 54be 7a54 b0bc fe14 23bd dcfd 493b
000000d0: 1b85 b93d eedc 1bbe ae65 9ebc 03a2 dc38
000000e0: fbeb b13d a130 1f3f 1eb2 4abf da86 b23c
000000f0: 3413 e83e 35f9 34bf 6f07 a6bc 352d 86be
00000100: c63c 0fbf 797a e83c 7be2 59be b243 b1bc
00000110: 11ca 02c0 5a12 383e 731e 8abc 796e bbbe
00000120: 8ae6 6a3d 1d3f eb3d 5221 b0bf ee8b 483e
00000130: 58e0 0fba 89f2 2ebe 9065 b93d a3af febb
00000140: 92c1 153e 113c b1bc 8a8b 23bd e40b 4d3b
00000150: 13c7 b63e 5b2c 46be 2852 9fbc c157 113a
00000160: b7ac 1d3e 03a5 623c 4b2d 77bc 5466 ad3c
00000170: 7a31 d23e ad07 893d 8af7 a0bc a7d3 823e
00000180: 5869 8bbe 0cb8 e83c 11ac 98be e233 b0bc
00000190: 7fe4 f03d 09bb 283f e0aa 9b3e d825 9c3e
000001a0: 0556 ac3d f1d1 c1be c7ad e5be eb4a 26bf
000001b0: ca68 10ba 97e6 efbe 8e34 90be 2ae1 fcbb
000001c0: 6d8d 7f3e f70e b1bc e18a 23bd a120 a53b
000001d0: e63b abbd 5312 6a3d 914c 9fbc 5d75 e739
000001e0: ee35 d63e 8b3c 983e c54b 973e fd72 ae3c
000001f0: 5711 3ebe 51db fdbd 4714 a2bc cf76 513e
00000200: 7f22 8fbe 9b15 e93c 5177 46bf 85ac afbc
00000210: f985 b0bc ffb0 c73e 3908 93bd 0422 24be
00000220: ebaf 083f 62d0 d33d d71a deb9 5dc9 3bbd
00000230: adcb fdb9 82f9 0fbf cd17 febd 99fc f7bb
00000240: ee01 4c3f 7e91 b0bc 6f0e 23bd 60b0 5fbb
00000250: 2632 67be c07e afbd d043 9ebc c3df 6239
00000260: a77d 433e 4820 ed3e da02 80be 0b97 b03c
00000270: bd61 d93d f446 09bf 64f4 a4bc 52b4 5bbf
00000280: 0632 443f 93a1 e93c fdf2 343f 24e6 adbc
00000290: 5c14 19be e219 5dbe aefa b2be d22d 463e
000002a0: c816 b7be 575c 92be cd34 9e3e 4022 003e
000002b0: 7294 e2b9 4418 9dbf 9621 98bd 9691 f1bb
000002c0: eb14 44bb 87bf afbc 48a9 22bd cf82 6c3b
000002d0: 91ed 2c3f d5e8 bebe 309b 9dbc 7e7d fbb8
000002e0: 7b14 913e ead0 143f 36ef 9c3d 2e4c b53c
000002f0: 825e c9bd 67c2 293e af19 a9bc de31 463f
00000300: fb23 58be b7ad e93c e44b 6a3f 4418 aebc
00000310: e67e 41bc e605 b23e e469 0dbe ab39 1d3e
00000320: 6431 a4be b36a 3e3f c211 673d a7f5 493f
00000330: cfc4 d2b9 b767 81bf b4f6 91bd df4c f0bb
00000340: d893 3bbf b693 afbc 3781 22bd 8196 5fbb
00000350: 05f5 bc3d 0ffc ba3e e432 9dbc 36a9 2bb9
00000360: 71b3 973d 89ba 25be c378 913e 1f8e b53c
00000370: 25ec 243f 8333 94be 278e a9bc 7605 823e
00000380: d02a b4bf 3f6a e93c a61a f4bd 5e2c aebc
00000390: b272 14bf 24c8 98bb ca8d e93d 837d 2abf
000003a0: ddb0 65be c7d5 88be 1b3c 7bbf 0b44 1d3c
000003b0: cb00 f8b9 61bb 513e 12c7 3b3e 06a8 f4bb
000003c0: 0020 cc3d ee14 b0bc abf4 22bd 5350 ea3b
000003d0: f0a1 10bf 43f4 043f 1ff5 9dbc 2b6e f037
000003e0: 6f2e 023e a8f5 7a3e 199d 0a3e df7a b23c
000003f0: f7ac a73c 8232 0abf c0c9 a6bc 4d18 1dbb

blk1.conv1.lowconv.conv1.bias f4 [32]
2.7371495 0.30959237 0.36588058 0.7784427 -0.40864223 -0.32816252 0.43526477 0.10408189
-0.15852444 0.2946971 0.27628598 -0.16524468 -2.784289 -0.096371286 0.3970259 0.1542481
0.5801242 0.3844394 -0.9485426 -0.28835773 -0.2750148 0.07327426 -0.25720903 -0.08049416
-0.040701054 -0.29570332 -0.4054505 -0.906108 -2.2050095 0.1582408 0.6322667 0.79835105
00000000: 752d 2f40 e482 9e3e b354 bb3e 0548 473f
00000010: 8e39 d1be eb04 a8be 06db de3e e328 d53d
00000020: 3b54 22be 8ae2 963e 5b75 8d3e e735 29be
00000030: ca31 32c0 4f5e c5bd fb46 cb3e 37f3 1d3e
00000040: 0583 143f 3ed5 c43e b0d3 72bf a0a3 93be
00000050: bdce 8cbe d110 963d e7b0 83be 1fda a4bd
00000060: 26b6 26bd 6d66 97be 3597 cfbe b2f6 67bf
00000070: e01e 0dc0 e009 223e 3bdc 213f bc60 4c3f

blk1.conv1.upconv.depthwise_conv.weight f4 [32, 1, 5, 5]
0.079787955 0.10728059 0.05941396 -0.08643029 -0.07250974 -0.19378349 -0.041886285 0.18984249
-0.14585465 -0.12894891 0.1514369 0.072741985 0.11877855 0.030416546 -0.02250108 0.08693829
0.16152462 0.13453412 0.004004125 0.19321726 -0.1869798 0.1604859 -0.12559435 0.13855922
0.1596438 0.40455407 -0.7777242 -2.5885098 -0.2958437 0.41185918 0.49877724 -1.0742891
-0.7397892 0.48232716 -0.040451724 0.70664 -0.046766523 1.3670303 0.7794307 0.115226254
0.4132667 -0.15264222 0.47618237 -0.024336465 0.4730002 0.12431161 0.07492959 0.121339194
0.1313701 0.042318914 -0.11564937 -0.28399852 -0.13136852 -0.104371846 -0.08673512 -0.26099387
0.26200652 1.1238492 -0.0110540865 -0.41736785 -0.028797278 1.0512023 1.0424002 0.2280092
-0.08792117 -0.032819316 0.14419751 0.6048951 -0.15651281 -0.14474206 -0.1592804 -0.45488214
-0.0036234779 -0.030002773 -0.018695638 -0.17316322 0.12087814 -0.29364896 -0.25346324 0.12514044
-0.11297284 1.4056195 2.1805203 -0.058490086 -0.07072388 -0.19011535 0.3328371 -1.107116
-0.1756734 -0.12503041 -0.13358587 -0.12429377 -0.014316341 -0.4637137 0.15698418 0.037804943
0.033421494 -0.029004881 0.1988126 -0.15613498 0.00132153 0.2681847 0.47685134 0.014118063
-0.14870264 0.0020216773 -0.6221805 -0.9903995 -0.12341496 0.018095756 -0.11017226 0.10329166
2.908464 -0.95743084 0.3644732 0.13622755 -0.76004153 1.2793176 -0.86479056 -0.058154423
0.12729727 -0.20594685 0.016741827 0.1813693 0.06256063 -0.37174597 -0.22702724 0.21195292
0.34328583 -0.5661227 0.11376324 0.2457129 1.1448598 0.41249898 -0.18219791 0.2622035
0.84615594 1.0005327 0.4324121 -0.02430677 -0.37373674 0.62143785 0.8625334 0.4521518
-0.02914308 -0.033146534 -0.11853534 -1.0311437 -0.11658884 -0.046719115 -0.045185894 0.3657655
0.8022914 -0.16903359 0.09062587 -0.055389196 -0.23762605 -1.2763926 0.018896028 0.30535856
-0.15146522 -0.13340859 -1.9798026 -0.17838538 0.42410934 0.28424045 0.17128694 0.28297547
0.0010851335 0.15486266 -0.02414059 0.18448518 -0.08715132 -0.09611119 0.22399008 -0.5550711
-0.0819739 -0.2215885 -0.3168386 -0.5057412 -0.41972965 -0.7250925 -0.8257603 -0.31443724
-0.27754807 -0.5219817 -0.15935339 -0.653865 -0.6527869 -0.62438065 -0.5484352 -0.013504559
-0.37920594 -0.14714065 -0.617431 -0.034846723 -0.11558423 -0.1563858 -0.06541637 -0.1575354
0.2250334 0.121733904 -0.25455448 0.35597044 -0.2842454 0.07057802 -0.41524783 -0.26149303
0.11667296 0.088750154 0.17601006 -0.48500577 -1.9711388 -0.572745 -0.08265292 0.17672056
-0.13464727 -1.2404791 0.0069877347 0.07375178 0.16932622 -0.12524705 -0.10752776 0.15534972
-0.15528199 0.45639437 0.29837504 0.09659086 0.42721984 0.3969811 0.19775267 -0.7788231
-1.6874893 -0.5788192 0.5036575 0.02348419 -0.7937439 -0.1882638 -0.85072994 0.0978777
0.27011752 -0.31204808 -0.7380562 -0.30057412 0.5179486 0.3147975 0.26656687 0.24193126
0.12092179 0.42357635 0.11224533 -0.09136331 -0.23420535 0.46128586 -0.11799953 -0.092229344
00000000: de67 a33d edb5 db3d 0d5c 733d 5d02 b1bd
00000010: fd7f 94bd 2e6f 46be f490 2bbd 1266 423e
00000020: ec5a 15be 2f0b 04be 4612 1b3e c0f9 943d
00000030: 2b42 f33d 1f2c f93c 2f54 b8bc b40c b23d
00000040: b666 253e 50c3 093e 0935 833b bfda 453e
00000050: a277 3fbe 6a56 243e ce9b 00be 78e2 0d3e
00000060: aa79 233e b621 cf3e ef18 47bf 25aa 25c0
00000070: d378 97be 35df d23e bb5f ff3e 4e82 89bf
00000080: d362 3dbf 96f3 f63e b5b0 25bd 5ce6 343f
00000090: 418e 3fbd d9fa ae3f c588 473f befb eb3d
000000a0: b197 d33e 3e4e 1cbe 2dce f33e 445d c7bc
000000b0: 152d f23e 1697 fe3d af74 993d af80 f83d
000000c0: e285 063e 9956 2d3d 94d9 ecbd 4168 91be
000000d0: 7885 06be e8c0 d5bd 2fa2 b1bd fda0 85be
000000e0: b825 863e 4ada 8f3f 331c 35bc 3db1 d5be
000000f0: 45e8 ebbc cc8d 863f 5f6d 853f 3e7b 693e
00000100: 0410 b4bd 8c6d 06bd 83a8 133e 68da 1a3f
00000110: e544 20be 4337 14be 671a 23be 50e6 e8be
00000120: df77 6dbb 60c8 f5bc 9827 99bc b351 31be
00000130: f58e f73d 2859 96be efc5 81be d124 003e
00000140: 4e5e e7bd 57eb b33f a58d 0b40 4d93 6fbd
00000150: aed7 90bd 99ad 42be a069 aa3e fab5 8dbf
00000160: bae3 33be f907 00be bcca 08be bb8d febd
00000170: 168f 6abc e26b edbe 76c0 203e 5bd9 1a3d
00000180: fae4 083d a59b edbc 8895 4b3e d9e1 1fbe
00000190: 3037 ad3a 814f 893e dc25 f43e 734f 673c
000001a0: 8145 18be 1e7e 043b 3947 1fbf d28a 7dbf
000001b0: fcc0 fcbd 8d3d 943c fea1 e1bd 948a d33d
000001c0: 4624 3a40 301a 75bf 3b9c ba3e 3c7f 0b3e
000001d0: 1592 42bf aec0 a33f ea62 5dbf 5533 6ebd
000001e0: 375a 023e bbe3 52be 2826 893c e0b8 393e
000001f0: ca1f 803d 7d55 bebe d479 68be 300a 593e
00000200: 29c3 af3e 6bed 10bf b4fc e83d 2a9c 7b3e
00000210: c48a 923f 1133 d33e 1792 3abe 8a3f 863e
00000220: ad9d 583f 7511 803f 1e65 dd3e fe1e c7bc
00000230: 6c5a bfbe 8d16 1f3f fdce 5c3f 7180 e73e
00000240: 78bd eebc a9c4 07bd a8c2 f2bd 84fc 83bf
00000250: 21c6 eebd 8b5c 3fbd d814 39bd 9e45 bb3e
00000260: f862 4d3f 2417 2dbe 0e9a b93d c8df 62bd
00000270: 3e54 73be d560 a3bf d8cb 9a3c f557 9c3e
00000280: b319 1bbe 439c 08be 2c6a fdbf a8aa 36be
00000290: dc24 d93e f787 913e d865 2f3e 29e2 903e
000002a0: 0a3b 8e3a 5194 1e3e 7dc2 c5bc afe9 3c3e
000002b0: 647c b2bd f2d5 c4bd a85d 653e 2419 0ebf
000002c0: efe1 a7bd 19e8 62be ab38 a2be 4178 01bf
000002d0: cee6 d6be a99f 39bf 0765 53bf ebfd a0be
000002e0: c81a 8ebe 98a0 05bf 892d 23be b263 27bf
000002f0: 0b1d 27bf 69d7 1fbf 4066 0cbf 3a42 5dbc
00000300: 4827 c2be 0aac 16be f50f 1ebf 70bb 0ebd
00000310: 6db7 ecbd 9923 20be 05f9 85bd f650 21be
00000320: 286f 663e a04f f93d f754 82be c241 b63e
00000330: 9d88 91be 358b 903d 5d9b d4be 6ae2 85be
00000340: 3cf2 ee3d a4c2 b53d fb3b 343e ad52 f8be
00000350: 474e fcbf 6b9f 12bf ef45 a9bd 3cf6 343e
00000360: f9e0 09be 05c8 9ebf 5ef9 e43b 2c0b 973d
00000370: da63 2d3e c340 00be 8437 dcbd ff13 1f3e
00000380: 3e02 1fbe 86ac e93e 9dc4 983e 6ed1 c53d
00000390: 8fbc da3e 1b41 cb3e ad7f 4a3e f360 47bf
000003a0: a6ff d7bf 7f2d 14bf b3ef 003f eb61 c03c
000003b0: cd32 4bbf 3ac8 40be 70c9 59bf 1b74 c83d
000003c0: d84c 8a3e c4c4 9fbe 40f1 3cbf dae4 99be
000003d0: 4898 043f 232d a13e 747b 883e d4bc 773e
000003e0: d8a5 f73d 00df d83e e1e0 e53d b01c bbbd
000003f0: 87d3 6fbe a92d ec3e bda9 f1bd bde2 bcbd

blk1.conv1.upconv.depthwise_conv.bias f4 [32]
-0.8011597 0.054316826 -0.6128033 -0.039972838 0.16498832 -0.63840336 0.04291249 0.5081069
0.37346748 0.14377433 -0.019027403 0.07610011 -0.40396953 -0.40110973 -0.47354183 -0.43600526
0.18173255 -0.00016004416 -0.38704282 -0.09613485 -0.2986519 0.30138445 0.055595607 0.591162
-0.32340637 0.08012427 -0.6192092 -0.4439393 0.021527914 -0.80090165 -0.32347485 0.36228544
00000000: cd18 4dbf 527b 5e3d ade0 1cbf 8fba 23bd
00000010: b3f2 283e 676e 23bf 02c5 2f3d 4b13 023f
00000020: 2137 bf3e 9439 133e 5bdf 9bbc 60da 9b3d
00000030: 18d5 cebe 415e cdbe 1374 f2be 153c dfbe
00000040: 1918 3a3e 87d1 27b9 7a2a c6be 59e2 c4bd
00000050: e7e8 98be 104f 9a3e 38b8 633d 6556 173f
00000060: 8595 a5be 3118 a43d 7e84 1ebf 034c e3be
00000070: 4f5b b03c e407 4dbf 7f9e a5be 7a7d b93e

blk1.conv1.upconv.conv1.weight f4 [32, 32, 1, 1]
-0.4743463 -0.1286982 0.16842179 -0.36608535 -1.0884674 -0.8811967 0.22572668 0.2899907
-0.52451897 0.9967985 0.048875235 -0.18122366 0.25570148 -0.41253316 0.21642655 0.14484592
-0.047876373 0.7264212 -0.30453923 -0.016232852 -1.3281282 -0.41973904 -0.14498523 -0.98438513
-0.3676342 0.33647496 0.09851729 0.11716986 -0.9319673 -0.6743334 -0.5360298 -0.5009155
0.49992973 -0.12811655 -0.1992692 -0.2086378 0.3154221 -0.49828735 -0.019101165 0.6709021
-0.47660422 0.9608522 0.3668526 0.7701923 0.5898652 -0.04561155 -0.10674753 -0.87907743
0.11189 -0.66065085 -0.04649443 0.013566954 0.3242515 -1.227383 0.47719464 -0.7161869
-0.5763955 0.8375961 0.4591924 -0.44759592 0.22820026 -0.06247017 -0.075144835 0.15694037
-0.09629723 -1.7375667 1.7399759 -2.897866 -1.1003802 1.6307805 1.8693966 2.3522139
2.779232 1.5834385 -1.9915979 -0.48326486 0.08348822 -0.6528724 0.40425053 -1.3129063
0.050227612 1.1744429 -1.7007315 0.3814357 1.0398581 -1.3198543 0.5381167 0.16816352
0.39043665 -2.3636143 -0.23319316 -2.1157043 -2.104096 -0.6329351 1.8487328 1.8283982
-0.26832348 0.23117293 -0.16839714 -0.21078509 -0.5815027 0.27303785 0.5350836 0.3292949
-0.66829336 -0.66504455 -0.12155094 -0.35255167 1.4398282 -0.3835552 -0.08737512 -0.2121962
0.07218835 -0.1639666 0.09410485 -0.00837356 -0.28142783 0.37305775 0.1460354 -0.16906981
-0.04389391 0.22640215 -1.8949087 -0.2191004 -0.17983879 0.079817645 -0.059235997 0.4079305
-0.19785291 -0.19868639 -0.075039804 0.36648655 -0.16529632 0.4881738 -0.5871641 0.27521247
-0.19536373 -0.29054502 -0.10411233 0.5553575 0.087561764 -0.1501595 0.24327615 -0.02379534
-0.08988141 -0.31360453 0.40068462 0.384709 -0.19687037 0.7670736 -0.18981718 -0.19752887
-0.506025 0.3055411 0.52013355 -0.216435 0.096856035 -1.5767355 -0.15478052 0.6036402
-0.31933957 -0.105636284 -0.029852718 -0.54483885 0.6107572 -0.09196599 -0.15873353 0.02022718
0.10079348 0.4289888 0.059394374 -0.1431983 0.49790928 0.4650831 0.27735388 -0.43529806
-0.17273311 -0.06413807 -0.01681211 -0.019812828 -0.073567405 -0.4454612 -0.023773726 -0.7083901
-0.15162969 0.026622202 -0.08533287 0.40516928 -0.47177657 0.75916934 -0.5636048 0.08870146
0.76962143 -0.23853777 -0.09386813 -0.0118894465 -0.4247841 -0.9075806 0.030903842 -0.04020766
0.032483615 -1.1901428 -0.26940206 0.5881399 -0.31038067 -1.2253823 -2.4785109 -0.30562833
-1.478779 0.63248026 -0.1262823 -0.68146664 -0.61775416 0.46912184 -0.9666221 0.09284385
-0.11673363 0.87019974 -0.49148133 1.8987322 0.49708948 -0.16578826 -1.2885673 0.07024792
0.9531221 -0.25998378 -0.38926324 -0.35898453 -1.5249143 -1.4724096 0.6631076 0.3352725
-0.21365488 -0.10630327 -0.39378646 0.73992383 -1.0017513 -0.7841736 -0.11761071 0.27978656
0.034535002 0.95651436 -0.33317018 -0.10563206 -0.7187953 -0.31183136 -0.21681039 -0.13824421
-0.33793527 0.91693944 0.3259822 0.16593814 -0.99118966 -0.08372991 -0.8874607 -0.36483693
00000000: 85dd f2be 76c9 03be c376 2c3e 8a6f bbbe
00000010: e652 8bbf 1b96 61bf e524 673e a979 943e
00000020: e046 06bf 302e 7f3f 6631 483d b292 39be
00000030: 4eeb 823e 8c37 d3be ec9e 5d3e 7d52 143e
00000040: 041a 44bd bdf6 393f 91ec 9bbe c2fa 84bc
00000050: 1b00 aabf 09e8 d6be 0277 14be aa00 7cbf
00000060: 8d3a bcbe 7246 ac3e 6fc3 c93d c0f6 ef3d
00000070: 6995 6ebf 1da1 2cbf 4039 09bf 003c 00bf
00000080: caf6 ff3e fc30 03be 3a0d 4cbe 26a5 55be
00000090: 017f a13e 851f ffbe 0c7a 9cbc 3dc0 2b3f
000000a0: 7805 f4be 69fa 753f 1bd4 bb3e 532b 453f
000000b0: 6801 173f 2dd3 3abd 739e dabd 380b 61bf
000000c0: 9626 e53d 6a20 29bf f270 3ebd ee47 5e3c
000000d0: 4b04 a63e e31a 9dbf db52 f43e 0658 37bf
000000e0: a88e 13bf b36c 563f 441b eb3e 4b2b e5be
000000f0: 54ad 693e b9e0 7fbd 89e5 99bd fab4 203e
00000100: 7b37 c5bd 9668 debf 88b7 de3f a376 39c0
00000110: 42d9 8cbf 6abd d03f 6348 ef3f ac8a 1640
00000120: f0de 3140 1dae ca3f aeec febf 7e6e f7be
00000130: dffb aa3d a522 27bf edf9 ce3e 500d a8bf
00000140: 78bb 4d3d 2554 963f 92b1 d9bf 8a4b c33e
00000150: 121a 853f fcf0 a8bf 04c2 093f 0f33 2c3e
00000160: 50e7 c73e 7545 17c0 30ca 6ebe b367 07c0
00000170: 82a9 06c0 0908 22bf 47a3 ec3f f408 ea3f
00000180: b261 89be 99b8 6c3e 4d70 2cbe 0cd8 57be
00000190: 5cdd 14bf 9ecb 8b3e 3dfb 083f 5799 a83e
000001a0: 4615 2bbf 5c40 2abf b3ef f8bd a781 b4be
000001b0: 4a4c b83f 5961 c4be baf1 b2bd f649 59be
000001c0: 7cd7 933d dce6 27be 0bba c03d 4231 09bc
000001d0: 4f17 90be 6d01 bf3e 4e8a 153e a320 2dbe
000001e0: 1aca 33bd f7d5 673e 5e8c f2bf db5b 60be
000001f0: a927 38be 6f77 a33d 72a1 72bd 44dc d03e
00000200: f499 4abe 7274 4bbe 78ae 99bd 20a4 bb3e
00000210: 7043 29be ebf1 f93e 6350 16bf a6e8 8c3e
00000220: 6e0d 48be 51c2 94be d838 d5bd e92b 0e3f
00000230: 9553 b33d 69c3 19be 621d 793e 72ee c2bc
00000240: bf13 b8bd c690 a0be 8926 cd3e 94f8 c43e
00000250: 6398 49be ef5e 443f 6f5f 42be 0245 4abe
00000260: db8a 01bf e26f 9c3e 7927 053f 23a1 5dbe
00000270: 755c c63d 78d2 c9bf c97e 1ebe 2a88 1a3f
00000280: 7a80 a3be d657 d8bd b08d f4bc 8f7a 0bbf
00000290: 955a 1c3f aa58 bcbd 0b8b 22be 79b3 a53c
000002a0: d06c ce3d 6ca4 db3e 8447 733d 93a2 12be
000002b0: f7ed fe3e 5f1f ee3e 5401 8e3e 63df debe
000002c0: f3e0 30be d25a 83bd 8db9 89bc 834e a2bc
000002d0: 82aa 96bd 7e13 e4be 1ec1 c2bc 0e59 35bf
000002e0: d044 1bbe ce16 da3c 00c3 aebd 5972 cf3e
000002f0: b38c f1be ec58 423f 6748 10bf 1ca9 b53d
00000300: e905 453f 3f43 74be ef3d c0bd f4cb 42bc
00000310: 4d7d d9be 3457 68bf 0e2a fd3c cab0 24bd
00000320: 8a0d 053d 9956 98bf 11ef 89be 5690 163f
00000330: 37ea 9ebe 54d9 9cbf ec9f 1ec0 517b 9cbe
00000340: a148 bdbf 3aea 213f 2650 01be 9974 2ebf
00000350: 2325 1ebf bd30 f03e 8c74 77bf eb24 be3d
00000360: 0b12 efbd 69c5 5e3f 71a3 fbbe a809 f33f
00000370: 8382 fe3e 66c4 29be c6ef a4bf 24de 8f3d
00000380: cfff 733f 981c 85be 834d c7be d2cc b7be
00000390: 6430 c3bf eb77 bcbf 6bc1 293f d6a8 ab3e
000003a0: 58c8 5abe 87b5 d9bd 619e c9be a66b 3d3f
000003b0: 6339 80bf 9abf 48bf e2dd f0bd 2f40 8f3e
000003c0: 9374 0d3d 20de 743f 4895 aabe 9f55 d8bd
000003d0: f802 38bf 5ca8 9fbe 8b03 5ebe e48f 0dbe
000003e0: da05 adbe 8bbc 6a3f 24e7 a63e b0eb 293e
000003f0: 9bbe 7dbf 967a abbd a030 63bf e8cb babe

blk1.conv1.upconv.conv1.bias f4 [32]
0.2511495 -0.23198606 -2.7448194 0.22669443 -0.13822481 -0.17781559 0.8875706 -0.0368533
0.2524336 0.17707904 0.31010208 0.037847284 -0.027417084 0.23805504 -0.3549781 0.39321643
0.10504475 -0.3119282 -0.009845118 0.1393773 -0.5454402 0.09143284 0.3518192 0.053243846
0.06524618 0.17484805 0.15630232 -0.66573197 -0.93122077 0.1363771 -0.24124464 2.3701925
00000000: ab96 803e c18d 6dbe 1fab 2fc0 9622 683e
00000010: ce8a 0dbe 4a15 36be d437 633f 7cf3 16bd
00000020: fa3e 813e 3554 353e b3c5 9e3e c105 1b3d
00000030: cb99 e0bc b3c4 733e b1bf b5be aa53 c93e
00000040: b421 d73d 0eb5 9fbe 6b4d 21bc ecb8 0e3e
00000050: f8a1 0bbf 2441 bb3d a521 b43e 3816 5a3d
00000060: ca9f 853d 5e0b 333e b70d 203e 696d 2abf
00000070: 7c64 6ebf 70a6 0b3e d608 77be 3cb1 1740

blk1.conv1.kca.conv.weight f4 [32, 1, 5, 5]
-0.6100339 0.0960163 -0.09951082 -0.18963765 0.1236102 -0.2925529 0.2096615 0.033387154
0.10489854 0.27398962 -0.5784114 0.32578963 -0.35208678 -0.00013813422 0.102148026 -0.012127117
0.37899244 0.047554903 0.055744648 0.16011229 -0.09315043 0.043444663 -0.09281836 0.19321217
0.16590998 0.017213898 0.18343244 0.034019552 0.027956896 -0.10885857 -0.07633583 -0.048687853
0.047245912 -0.15133135 -0.12302754 0.12994859 -0.14355843 -0.1462834 0.16863874 0.06527505
-0.17285946 0.034693427 0.14505164 0.17044751 0.16078538 -0.041864417 0.124806374 -0.019525418
0.15640137 0.11882477 0.032451794 -0.0034108504 -0.082232 -0.15610242 0.28899196 0.22671151
0.15697265 0.44599903 0.31026813 0.24910209 -0.36456725 0.4371099 -0.05703505 0.39736244
-0.5961804 -0.14612308 0.12737116 0.28435966 1.3474691 0.8866704 0.18315239 -0.15895976
0.062357694 1.0687773 -0.18258093 0.112201385 -0.10281451 0.013395525 -0.13015735 0.049307372
0.18820052 0.049554016 -0.12046351 -0.0055885077 0.082368664 0.11194608 -0.19997822 -0.08876784
-0.07063439 0.16519442 -0.01810956 0.098397754 0.08915897 0.17009616 0.006189966 0.011968899
-0.033237126 -0.18417966 -0.030634617 0.113556795 -0.01978528 0.5350193 0.20628773 0.27739394
-0.2550167 0.14549313 0.14764003 0.05559078 0.34506643 0.09256545 0.104867294 -0.3536447
-0.6709142 -0.156888 -0.04481994 0.23382889 -0.65927553 -0.7394469 0.088741 0.20076157
0.40608674 -0.2865982 -0.5472808 -0.041098867 0.05594306 -0.0348264 0.3135774 -0.00094795495
0.27447793 0.094484985 -0.47566172 0.35597587 0.1470408 0.059332814 -0.39464033 0.29382908
0.42800277 0.36668277 0.17564577 0.09489077 0.34232414 0.5807391 0.14066905 0.060321074
0.11095213 0.28032023 -0.1834278 -0.44892228 0.3702228 0.5758981 -0.36343664 -0.0033446397
0.26154438 -0.22103524 -0.35412765 0.07741155 0.2902289 0.81152844 0.10504914 -0.3609801
0.22026488 0.64321315 1.2708571 0.7463457 0.18945973 -0.18840457 0.17768706 0.60031754
0.08587677 -0.30527484 -0.1873093 0.13617206 0.268761 0.057038546 -0.31256965 0.042963564
-0.16571221 -0.3664129 -0.2071827 0.50965047 -0.060877632 0.034763392 -0.41779187 -0.34784588
0.59601647 0.028092649 0.057905298 0.2739047 -0.04707964 0.5122182 0.06710801 0.22497849
0.019388324 -0.19523957 -0.17291711 0.26107633 0.59223634 0.4456318 0.18295276 0.38308105
-0.018354744 0.025866374 -0.0056648715 -0.0052272356 -0.13908055 0.2286619 0.5338434 0.69452196
0.8214677 0.48261353 0.06418771 0.7613209 1.0517285 0.81522125 0.05300951 0.11953657
0.5764199 0.59236073 0.40219757 0.18797812 0.018043194 0.22236569 0.29396182 -0.12958208
-0.052443106 -0.16775304 -0.065149955 -0.18658 -0.06914167 0.14385842 0.09044075 0.008306296
-0.13936959 0.15215431 -0.020805122 -0.027876027 0.09278167 0.10240305 -0.13954124 0.010027671
-0.1346174 -0.13509548 0.0005634625 -0.005637235 0.050881896 -0.12653768 0.053424217 0.12748845
0.016716065 0.17232758 -0.90761423 -0.1841777 0.0864285 -0.61159104 -0.28513306 -0.5028303
00000000: 2f2b 1cbf 32a4 c43d 54cc cbbd 5f30 42be
00000010: 5827 fd3d 7ec9 95be 81b1 563e f8c0 083d
00000020: 0cd5 d63d 5e48 8c3e c512 14bf e6cd a63e
00000030: b844 b4be 1fd8 10b9 fc32 d13d d1b0 46bc
00000040: 4c0b c23e eec8 423d 8054 643d 7af4 233e
00000050: a7c5 bebd 08f3 313d 8d17 bebd 69d9 453e
00000060: 4ee4 293e 2904 8d3c b7d5 3b3e 1658 0b3d
00000070: dc05 e53c 3ef1 debd f655 9cbd ea6c 47bd
00000080: ee84 413d 9bf6 1abe ddf5 fbbd 3e11 053e
00000090: fb00 13be 51cb 15be a2af 2c3e edae 853d
000000a0: 1202 31be b21a 0e3d 6b88 143e cb89 2e3e
000000b0: eca4 243e 067a 2bbd 7c9a ff3d c5f3 9fbc
000000c0: ae27 203e 675a f33d 2cec 043d 9388 5fbb
000000d0: 4069 a8bd 50d9 1fbe c1f6 933e 1027 683e
000000e0: 70bd 203e fc59 e43e 77db 9e3e 9e14 7f3e
000000f0: 8fa8 babe decc df3e 969d 69bd 1773 cb3e
00000100: 479f 18bf 4aa1 15be 966d 023e 9797 913e
00000110: de79 ac3f d5fc 623f 4d8c 3b3e 59c6 22be
00000120: c86a 7f3d b2cd 883f 7ff6 3abe d7c9 e53d
00000130: 6a90 d2bd e778 5b3c f847 05be 87f6 493d
00000140: a3b7 403e 27f9 4a3d 93b5 f6bd cd1f b7bb
00000150: e7b0 a83d fd43 e53d 17c7 4cbe eacb b5bd
00000160: c3a8 90bd ba28 293e 805a 94bc c384 c93d
00000170: fa98 b63d b02d 2e3e 33d5 ca3b 3319 443c
00000180: a723 08bd 9899 3cbe 73f5 fabc 7790 e83d
00000190: bd14 a2bc 06f7 083f 173d 533e 9406 8e3e
000001a0: 8d91 82be 27fc 143e f32e 173e 28b3 633d
000001b0: 8cac b03e f492 bd3d aac4 d63d eb10 b5be
000001c0: 08c1 2bbf 3fa7 20be 1d95 37bd d770 6f3e
000001d0: 48c6 28bf 644c 3dbf d7bd b53d 7194 4d3e
000001e0: 9aea cf3e 00bd 92be 981a 0cbf 4957 28bd
000001f0: 8d24 653d 21a6 0ebd 388d a03e 2e80 78ba
00000200: 5f88 8c3e 5881 c13d ef89 f3be 7842 b63e
00000210: dd91 163e f706 733d 4c0e cabe c470 963e
00000220: 2e23 db3e d8bd bb3e 7cdc 333e 1856 c23d
00000230: 1c45 af3e 51ab 143f 8c0b 103e 3b13 773d
00000240: df3a e33d 2286 8f3e 7fd4 3bbe 24d9 e5be
00000250: d88d bd3e 0f6e 133f 5e14 babe be31 5bbb
00000260: 25e9 853e 1057 62be 3850 b5be f289 9e3d
00000270: e298 943e 54c0 4f3f 0124 d73d 62d2 b8be
00000280: 1e8d 613e 9ea9 243f 72ab a23f 8310 3f3f
00000290: bb01 423e 21ed 40be 99f3 353e 69ae 193f
000002a0: 29e0 af3d fc4c 9cbe 02ce 3fbe b070 0b3e
000002b0: 0b9b 893e 40a1 693d 2109 a0be 90fa 2f3d
000002c0: 76b0 29be 799a bbbe b427 54be 7478 023f
000002d0: d35a 79bd 0f64 0e3d d1e8 d5be db18 b2be
000002e0: 8994 183f 8e22 e63c 1b2e 6d3d 3d3d 8c3e
000002f0: 95d6 40bd bb20 033f ed6f 893d c360 663e
00000300: 43d4 9e3c e2ec 47be 2f11 31be ccab 853e
00000310: cd9c 173f da29 e43e f857 3b3e 3323 c43e
00000320: b05c 96bc b8e5 d33c 63a0 b9bb 3b49 abbb
00000330: 226b 0ebe 5826 6a3e f6a9 083f 31cc 313f
00000340: b54b 523f 1f19 f73e d974 833d ede5 423f
00000350: 0a9f 863f 57b2 503f 8020 593d 97cf f43d
00000360: 4190 133f f4a4 173f d7ec cd3e 567d 403e
00000370: 52cf 933c d5b3 633e 2a82 963e 2ab1 04be
00000380: 95ce 56bd 74c7 2bbe 576d 85bd d40e 3fbe
00000390: 269a 8dbd 9f4f 133e 0039 b93d 2117 083c
000003a0: e7b6 0ebe 57ce 1b3e 816f aabc 445c e4bc
000003b0: 5104 be3d b1b8 d13d e6e3 0ebe 1a4b 243c
000003c0: 25d9 09be 7856 0abe 54b5 133a 8eb8 b8bb
000003d0: 8969 503d 1893 01be 5ad3 5a3d 558c 023e
000003e0: 21f0 883c a476 303e 6859 68bf 1499 3cbe
000003f0: 6d01 b13d 3b91 1cbf f6fc 91be 7db9 00bf

blk1.conv1.kca.conv.bias f4 [32]
0.125168 -0.020446736 0.041579664 -0.13612007 0.5300545 0.0005412509 -0.26981807 0.01029154
-0.41607377 -0.18097074 0.25826228 0.5769699 -0.0040701297 0.0904027 0.6100033 -0.1811523
-0.39123017 -0.0018710283 -0.032521226 0.009849417 -0.19313097 -0.09082226 -0.0024205619 -0.0663173
0.021715868 -0.27789873 -0.19380634 -0.12574059 0.11119875 -0.09667227 -0.054191567 -0.15778168
00000000: 0a2c 003e ea7f a7bc 704f 2a3d 0f63 0bbe
00000010: a7b1 073f bce2 0d3a 9825 8abe d99d 283c
00000020: 9f07 d5be 6550 39be f43a 843e 4db4 133f
00000030: b95e 85bb 0d25 b93d 2d29 1c3f fd7f 39be
00000040: 524f c8be 4b3d f5ba fa34 05bd 735f 213c
00000050: 20c4 45be 0501 babd 4aa2 1ebb 5dd1 87bd
00000060: 7ae5 b13c be48 8ebe 2b75 46be 24c2 00be
00000070: 2cbc e33d 1cfc c5bd faf7 5dbd 8591 21be
